Assets/ONNX/mocopiAI2.onnx (onnx, 688007 bytes, 6 tensors)

model/new_output/MatMul/ReadVariableOp:0 f4 [64, 6]
0	0xbcc48345	-0.023988375
1	0xbd9b5be1	-0.07585884
2	0x3e676e90	0.2260077
3	0x3e81043a	0.25198537
4	0x3e6ddcdb	0.23228781
5	0x3d39d730	0.045371234
6	0xbe3bd89c	-0.18344349
7	0xbe586a22	-0.21134236
8	0x3db53704	0.08848384
9	0xbe721025	-0.23638971
10	0xbdbf0f26	-0.09329061
11	0x3dfa2a88	0.122151434
12	0xbe1f6968	-0.15567553
13	0x3c5d5260	0.013508409
14	0xbd97eb10	-0.074178815
15	0xbe7d8be9	-0.24760403
16	0xbcdf6f63	-0.027274793
17	0xbe19c2ca	-0.15015712
18	0xbd5336d4	-0.05156596
19	0x3e74d16c	0.23908013
20	0xbddce57b	-0.107859574
21	0xbe9abe11	-0.30223134
22	0x3cf157d5	0.029460827
23	0x3ea811cb	0.32826075
24	0xbd272fd8	-0.04081711
25	0xbe79ffbb	-0.2441396
26	0xbe2533f3	-0.16133098
27	0x3d8d6d38	0.069055974
28	0x3d2e6df0	0.042585313
29	0x3dc11724	0.09428242
30	0x3f09d067	0.5383362
31	0xbeb80808	-0.35943627
32	0x3d9a2803	0.07527163
33	0xbe748f69	-0.23882832
34	0xbed36989	-0.41291454
35	0xbe947050	-0.28991938
36	0xbcd392fd	-0.025826925
37	0xbc61a906	-0.0137732085
38	0x3e03acab	0.12858836
39	0xbd54278e	-0.051795535
40	0xbd2cdd67	-0.042203333
41	0xbe8e3159	-0.27772024
42	0x3dae3eb4	0.085080534
43	0xbe6aff8c	-0.22949046
44	0xbe6fb05b	-0.23407118
45	0xbe21a8e3	-0.15787081
46	0xbd85f6af	-0.06541192
47	0x3ec6dbb5	0.38839498
48	0x3e59c337	0.21265875
49	0xbe6c25f2	-0.2306135
50	0x3e294e10	0.16533685
51	0xbd261b1f	-0.04055321
52	0xbea86860	-0.32892132
53	0x3e6198b8	0.22030914
54	0xbe4e19cd	-0.2012703
55	0x3e520a29	0.20511688
56	0x3e317439	0.17329492
57	0x3d776892	0.06040246
58	0xbe046c10	-0.12931848
59	0xbdb7f583	-0.089823745
60	0xbe432b5a	-0.19059506
61	0xbe10f1fc	-0.1415481
62	0x3e452744	0.1925326
63	0xbe01a0b8	-0.12658966
64	0xbda06d86	-0.0783339
65	0xbe200010	-0.15625024
66	0x3e530989	0.20609106
67	0xbe8ba62e	-0.27275223
68	0xbe89e3df	-0.26931664
69	0xbd78dd32	-0.060757823
70	0xbd50ff87	-0.05102494
71	0x3e572490	0.21010041
72	0x3d29b498	0.041431993
73	0x3e50165e	0.20321032
74	0x3ce7c6b0	0.028292984
75	0xbe696056	-0.22790655
76	0xbe90994b	-0.28241953
77	0x3e703434	0.23457414
78	0x3e859766	0.2609207
79	0x3db30a2d	0.08742175
80	0x3e5b88eb	0.21438949
81	0x3d926925	0.07148961
82	0x3e0c2a10	0.1368792
83	0xbe51a354	-0.20472461
84	0x3d1bbc3c	0.03802131
85	0x3e802fae	0.25036377
86	0xbb2d99e8	-0.002648944
87	0x3e8f9ba6	0.28048438
88	0xbe7a253b	-0.24428265
89	0xbe112153	-0.14172868
90	0x3e06a1a8	0.13147604
91	0x3e0b8fe6	0.13629112
92	0xbe2fc587	-0.17165194
93	0xbe473a34	-0.19455796
94	0xbd8b112a	-0.06790383
95	0xbe60f8ca	-0.21969905
96	0x3e4a2060	0.19738913
97	0xbd96969a	-0.07352944
98	0x3c8d9c90	0.017286569
99	0xbde8b39a	-0.11362381
100	0xbde5805c	-0.11206123
101	0x3e5d62a8	0.21619666
102	0xbe8c95bf	-0.27457997
103	0x3c86d74c	0.016460083
104	0xbe69f238	-0.22846305
105	0xbdfae32d	-0.122503616
106	0xbeb2187e	-0.3478431
107	0x3e739995	0.23789056
108	0xbd5e3270	-0.05424732
109	0xbdc4d588	-0.0961104
110	0xbe837a20	-0.2567911
111	0x3e8b8734	0.2725159
112	0xbe243296	-0.16034922
113	0x3ddfa530	0.10920179
114	0x3e8ba5c5	0.2727491
115	0x3e7bc58f	0.24587081
116	0x3dd3bd9c	0.103388995
117	0xbd40ab96	-0.047038637
118	0xbdbea663	-0.093090795
119	0x3cc7db1b	0.02439647
120	0xbd6ade09	-0.057340655
121	0xbd841e36	-0.06451075
122	0x3b69fff6	0.0035705543
123	0xbe13cc5f	-0.1443343
124	0xbe49cb60	-0.19706488
125	0x3e67a973	0.22623233
126	0xbc86b7fd	-0.016445154
127	0x3e85df73	0.2614704
128	0x3b18044e	0.0023195925
129	0xbecc5b99	-0.39913633
130	0xbe5d3647	-0.21602736
131	0x3e139d2f	0.1441543
132	0x3c13a529	0.009011545
133	0x3e0f3e7f	0.13988684
134	0x3dc4fec6	0.09618907
135	0xbe6b0e9e	-0.22954795
136	0xbe489e57	-0.19591652
137	0xbe9350b5	-0.28772512
138	0xbd470bee	-0.04859536
139	0x3e973116	0.29529637
140	0xbdf83d01	-0.121210106
141	0x3e577407	0.21040355
142	0xbd2a0280	-0.04150629
143	0xbd5d53d5	-0.054035027
144	0x3e83f35f	0.25771615
145	0x3e82f4b7	0.25577328
146	0xbe8d7839	-0.27630785
147	0x3e1e7361	0.15473701
148	0x3e633236	0.22187123
149	0xbc345b46	-0.011008089
150	0x3e7bab60	0.24577093
151	0xbc3a5720	-0.011373311
152	0x3e6b52cc	0.22980803
153	0x3b04d000	0.002026558
154	0xbc4ca900	-0.012491465
155	0xbe6a20aa	-0.22864023
156	0x3dd7e338	0.105413854
157	0x3e706b2c	0.23478383
158	0xbe341b2d	-0.17588492
159	0xbeb02f8c	-0.34411275
160	0x3e94a13b	0.2902926
161	0xbe0ec0a9	-0.13940682
162	0x3eb09b11	0.34493306
163	0xbed96711	-0.42461446
164	0xbecbccb3	-0.3980461
165	0x3e092c39	0.13395776
166	0x3ebdc4d2	0.37064224
167	0xbeb64ebd	-0.35606948
168	0x3dea7149	0.11447389
169	0xbd3e5ede	-0.04647719
170	0xbeaa42cf	-0.33254096
171	0xbd009be4	-0.03139867
172	0xbe428921	-0.18997623
173	0xbe87d34e	-0.265284
174	0xbe8d6f7c	-0.27624118
175	0x3e0d2b17	0.13785969
176	0x3dd8017e	0.105471596
177	0xbe664319	-0.22486533
178	0x3ea4c73f	0.32183263
179	0x3daa9bf9	0.08330531
180	0x3e8a3338	0.26992202
181	0x3e0b1cba	0.13585177
182	0x3e65bf4c	0.22436255
183	0xbd134d10	-0.035962164
184	0x3ceacb70	0.02866146
185	0x3e5a08a4	0.21292359
186	0xbdc2e75e	-0.09516786
187	0x3e7c5180	0.24640465
188	0xbe852740	-0.26006508
189	0x3ce5edb0	0.02806744
190	0x3b982b80	0.0046438575
191	0x3e1734e2	0.14766267
192	0xbde0401e	-0.109497294
193	0xbe56ab7e	-0.20963857
194	0x3df8b569	0.12143976
195	0x3e24d300	0.16096115
196	0x3e852d2b	0.26011023
197	0xbd0c257d	-0.03421544
198	0xbdeff638	-0.117168844
199	0x3e8bc46c	0.27298295
200	0x3c92ba60	0.017911136
201	0xbe0d917d	-0.1382503
202	0x3e88d93e	0.26728243
203	0xbe44fab6	-0.19236264
204	0x3dcde7e4	0.10053995
205	0xbd7de210	-0.061983168
206	0xbd72b900	-0.05925846
207	0x3e496cf2	0.19670466
208	0x3e36779a	0.17819062
209	0xbbcd7440	-0.0062699616
210	0xbc82e592	-0.015978608
211	0xbdfd4601	-0.12366868
212	0x3e01f01b	0.12689249
213	0x3de2bb82	0.110709205
214	0xbe5d6dc8	-0.2162391
215	0x3e17aea4	0.14812714
216	0x3e8416a1	0.25798514
217	0xbe8506b7	-0.25981686
218	0xbe2b23dc	-0.16712898
219	0x3d0d24c2	0.034458883
220	0xbd1801d3	-0.037111115
221	0x3deec8ce	0.11659394
222	0xbcafde5c	-0.021468334
223	0x3e3bc98a	0.183386
224	0xbe34b096	-0.17645487
225	0xbe1b1191	-0.1514342
226	0x3e88b56b	0.2670091
227	0xbe84ca0b	-0.25935397
228	0xbd835626	-0.06412916
229	0xbe749c76	-0.2388781
230	0xbe2889d2	-0.16458824
231	0x3e86819c	0.2627076
232	0xbe3e7c39	-0.18602075
233	0xbe757df5	-0.2397383
234	0xbe559d32	-0.20860747
235	0x3d4a78ce	0.049431615
236	0x3dc9cbf9	0.09853358
237	0x3e9867b0	0.29766607
238	0xbdc246f1	-0.09486187
239	0xbe7122a6	-0.23548374
240	0x3e46adfa	0.19402304
241	0x3d7ce483	0.061741363
242	0xbe62586b	-0.22104041
243	0xbe04a735	-0.1295441
244	0x3e108967	0.14114915
245	0x3e9b6dcb	0.30357203
246	0xbe836138	-0.2566011
247	0x3e53b0d4	0.20672923
248	0xbd491acf	-0.049097832
249	0xbe4cb381	-0.1999035
250	0x3e9f9e2e	0.3117537
251	0xbe8b7181	-0.27235034
252	0x3e686203	0.22693639
253	0x3e84d7e5	0.25945964
254	0xbe41ee28	-0.18938506
255	0xbecf03c7	-0.4043257

model/new_output/BiasAdd/ReadVariableOp:0 f4 [6]
0	0xbc883fc4	-0.016631968
1	0xbb3fa76f	-0.0029244085
2	0x3c02dc30	0.007987067
3	0x3bf614e0	0.0075098127
4	0xbbe2d69c	-0.006922556
5	0x3c5a3ddb	0.013320412

model/dense_1/MatMul/ReadVariableOp:0 f4 [64, 64]
0	0x3d452f8e	0.048141055
1	0x3e08b067	0.13348542
2	0x3e202061	0.15637352
3	0xbdd9e45f	-0.106392615
4	0xbdeda433	-0.11603584
5	0x3dde9575	0.108683504
6	0xbe4b4ebb	-0.19854252
7	0x3d9452e3	0.07242372
8	0xbe42dd5a	-0.19029751
9	0x3d89ddca	0.06731756
10	0xbd42cc16	-0.047557913
11	0x3e19bccb	0.15013425
12	0xbcb85a48	-0.022503987
13	0x3d07fc8c	0.03319983
14	0xbe5ee3d2	-0.21766594
15	0x3d712313	0.05887134
16	0xbd567481	-0.0523572
17	0x3e08a6e5	0.13344915
18	0xbd74bd6c	-0.05975096
19	0xbdf1a4df	-0.11799025
20	0xbe42a8fb	-0.19009773
21	0x3d66e2b8	0.05636856
22	0x3e41e6af	0.18935655
23	0x3df81312	0.121130124
24	0x3e48bb21	0.19602634
25	0xbe0fdc07	-0.14048778
26	0xbd5d2ba8	-0.053996712
27	0xbba6b460	-0.0050874203
28	0x3e29bdd2	0.16576317
29	0xbe30197e	-0.17197224
30	0x3c987ea7	0.01861508
31	0x3d9782de	0.07398008
32	0xbd8fce7b	-0.07021805
33	0x3d0bc9dc	0.034128055
34	0xbdfadd9a	-0.122492984
35	0x3d86f605	0.06589893
36	0xbd7681a0	-0.060182214
37	0xbe599c57	-0.21251045
38	0xbd583fa0	-0.052795053
39	0xbe14051a	-0.14455071
40	0x3e19d16f	0.15021299
41	0xbe1f6138	-0.1556443
42	0xbe38d1e8	-0.18048823
43	0xbe147aec	-0.14500016
44	0x3d3c124e	0.045915894
45	0x3e11fddf	0.14257
46	0x3e2f189f	0.17099236
47	0x3d2e9859	0.04262576
48	0xbe3b1056	-0.1826795
49	0xbe457133	-0.19281463
50	0xbd5eef17	-0.054427233
51	0x3dbc4806	0.09193425
52	0xbd30dba7	-0.043178227
53	0x3c9ff317	0.019525094
54	0x3e57643f	0.21034335
55	0x3dbfa9f6	0.09358589
56	0x3e2beff9	0.16790761
57	0x3de77df3	0.1130332
58	0xbd563f8c	-0.052306697
59	0x3e455fdf	0.19274853
60	0xbdcf86de	-0.10133146
61	0xbd03f474	-0.03221555
62	0xbd20d314	-0.0392638
63	0xbe36b7b6	-0.17843518
64	0x3e3ecbea	0.18632475
65	0xbe28b24e	-0.16474268
66	0x3d9f156a	0.07767756
67	0xbe46f58d	-0.19429608
68	0xbe37955c	-0.1792807
69	0x3defc749	0.117079325
70	0xbdb9df2d	-0.090757705
71	0xbdcd2bde	-0.100181326
72	0x3c91b2db	0.01778548
73	0xbdfd8806	-0.1237946
74	0xbdec0eae	-0.115262374
75	0x3e322133	0.17395477
76	0x3cc3d520	0.023905337
77	0xbe0f75f4	-0.1400984
78	0x3e408eb4	0.18804437
79	0xbdaafd15	-0.08349053
80	0x3dfb84fa	0.12281223
81	0xbda009ee	-0.07814394
82	0x3e50a33d	0.2037477
83	0x3aaea4cb	0.0013324259
84	0xbe2bbee9	-0.16772045
85	0x3df5a376	0.11994068
86	0xbdb6a5a1	-0.0891831
87	0xbe1bdf2d	-0.15221854
88	0xbe17226e	-0.14759228
89	0xbdf46893	-0.119340084
90	0xbe175729	-0.14779343
91	0xbd4a6842	-0.049415834
92	0x3e07d336	0.13264164
93	0xbd8db935	-0.06920091
94	0xbce3d37d	-0.027810806
95	0xbdc1d377	-0.09464162
96	0xbd4be496	-0.049778543
97	0xbe2ca10f	-0.16858314
98	0x3e34ab31	0.1764343
99	0x3ad08d0f	0.0015911179
100	0x3e0ed3a6	0.13947925
101	0x3cdbc62e	0.026827898
102	0xbdda4998	-0.10658568
103	0x3dce2d4a	0.10067232
104	0xb9d8d122	-0.00041354547
105	0xbdf5f053	-0.12008729
106	0x3e3a85e9	0.18215145
107	0xbe5a0fcb	-0.21295087
108	0xbc292b22	-0.010325225
109	0x3dfadad2	0.12248768
110	0x3cde2a45	0.027119765
111	0x3dce93e3	0.10086801
112	0x3d9088cd	0.07057343
113	0x3d44ab88	0.048015147
114	0xbe2c4896	-0.16824564
115	0xbe011865	-0.12606962
116	0xbd10c67b	-0.035345536
117	0x3e01456e	0.12624142
118	0x3ddcea37	0.107868604
119	0x3e46a8d2	0.19400337
120	0xbd041742	-0.032248743
121	0xbd9b3bc2	-0.07579757
122	0xbe39c2e8	-0.18140757
123	0x3dbaa88e	0.091141805
124	0xbe4699f1	-0.19394661
125	0x3d977bb7	0.073966436
126	0x3de951c3	0.11392548
127	0x3d809332	0.06278075
128	0x3dbc0e09	0.091823645
129	0xbe4a7162	-0.19769815
130	0x3d775cec	0.06039135
131	0x3da3f92a	0.08006509
132	0x3dd6f2d2	0.10495533
133	0x3c27b109	0.01023508
134	0x3df556c2	0.11979438
135	0x3db7ff46	0.089842364
136	0x3d9a3b57	0.075308494
137	0x3e2399a3	0.15976577
138	0x3d4d0ae4	0.050059214
139	0xbdd5ceff	-0.10439872
140	0xbdc77a9f	-0.09740185
141	0xbde9d9cb	-0.11418494
142	0x3cf9df89	0.030502098
143	0x3d0a8894	0.033821657
144	0xbe5c6b90	-0.21525407
145	0xbe28ff31	-0.16503598
146	0xbdaae7e6	-0.08345012
147	0xbe2ce5cd	-0.16884537
148	0xbdaaacf0	-0.083337665
149	0xbe115581	-0.14192773
150	0x3c34a1ce	0.011024905
151	0x3e0fe27b	0.14051239
152	0xbe179484	-0.14802748
153	0x3dccd87e	0.1000223
154	0xbd413d1c	-0.04717742
155	0xbcb6f238	-0.022332296
156	0x3de1d5e8	0.110271275
157	0xbe29e008	-0.16589367
158	0xbdc88b4c	-0.09792194
159	0x3c904948	0.017613068
160	0x3e489f5b	0.1959204
161	0x3e15995f	0.14609288
162	0x3dea3ef8	0.114377916
163	0x3e07fefa	0.1328086
164	0x3ded9459	0.11600561
165	0xbe1c6b70	-0.15275359
166	0xbe452c4d	-0.1925518
167	0xbd24b868	-0.040214926
168	0x3d88f839	0.0668797
169	0xbcf9c5b0	-0.030489773
170	0x3dacda44	0.08440068
171	0xbe39729e	-0.18110129
172	0xbb0f80c3	-0.0021896816
173	0x3e00b2fc	0.12568277
174	0xbe0b3054	-0.13592654
175	0xbdc9d7fe	-0.0985565
176	0x3e22a2b9	0.15882386
177	0xbe3e72b7	-0.18598448
178	0x3e194d2a	0.14970842
179	0x3de809b6	0.11329977
180	0x3dc373f6	0.09543602
181	0xbe200a6e	-0.15628979
182	0xbdddcea2	-0.10830428
183	0x3cfac1a7	0.030609919
184	0xbc8da740	-0.017291665
185	0xbe1aa85d	-0.15103288
186	0xbd8150ec	-0.06314263
187	0xbd1a4b24	-0.037669316
188	0xbd638854	-0.055549935
189	0x3dafcb76	0.08583729
190	0xbe1e4e65	-0.15459593
191	0x3e456b0d	0.19279118
192	0x3d42d4bd	0.047566164
193	0x3de4be4a	0.11169107
194	0x3e378c47	0.17924605
195	0x3d101f74	0.035186246
196	0xbdc68791	-0.09693826
197	0xbdb6ef76	-0.08932392
198	0x3daf9642	0.08573581
199	0x3de7e598	0.113230884
200	0x3d10bedd	0.03533827
201	0xbe3d2425	-0.1847082
202	0xbd9b9274	-0.07596293
203	0x3c76e582	0.015069367
204	0xbc7ec270	-0.015549287
205	0xbdc15932	-0.09440841
206	0xbc4285d2	-0.011872726
207	0xbdb38110	-0.08764851
208	0xbc8a9388	-0.016916052
209	0xbccf0c00	-0.025274277
210	0xbd932ce6	-0.07186298
211	0xbcec1702	-0.028819565
212	0x3df403d3	0.11914792
213	0xbe035d18	-0.12828481
214	0x3d5e2a32	0.05423946
215	0xbd8b44c0	-0.068002224
216	0x3daac812	0.08338942
217	0x3d86f08e	0.06588851
218	0xbe30dcb7	-0.17271696
219	0x3db467d6	0.08808868
220	0xbe03ff94	-0.12890464
221	0x3dcda8ae	0.10041939
222	0x3e095a91	0.13413455
223	0x3e0fbedd	0.14037652
224	0xbce7c275	-0.028290967
225	0x3d088b8c	0.033336207
226	0xbd987238	-0.074436605
227	0x3e3fe523	0.18739752
228	0xbd6c52ec	-0.057696268
229	0x3db3126c	0.08743748
230	0x3dec2574	0.11530581
231	0x3cf35150	0.029701859
232	0x3e058bb5	0.13041575
233	0x3db929b6	0.09041159
234	0xbd67df38	-0.056609362
235	0xbca366a8	-0.019946411
236	0x3e1d8d91	0.15386035
237	0x3c1f9459	0.009739959
238	0xbe02bb30	-0.12766719
239	0xbe03ac94	-0.12858802
240	0x3d883571	0.06650818
241	0x3da0382d	0.07823215
242	0xbdfd1a12	-0.12358488
243	0x3e1428b5	0.14468654
244	0x3d7d806c	0.06189005
245	0xbc9a22b8	-0.018815383
246	0xbd82dff3	-0.06390371
247	0x3b531c83	0.003221304
248	0xbd0afde6	-0.033933543
249	0x3e41306b	0.18866126
250	0xbdc50e39	-0.096218534
251	0xbd91d94e	-0.07121526
252	0x3e17bb87	0.1481763
253	0x3d24dc00	0.04024887
254	0x3e1a6cf2	0.15080622
255	0xbce030e8	-0.02736707

model/dense_1/BiasAdd/ReadVariableOp:0 f4 [64]
0	0xbc69c080	-0.014267087
1	0xbc080f83	-0.0083044795
2	0xbc38fd9d	-0.011290935
3	0x3cd358ab	0.025799116
4	0xbbf4c1dc	-0.007469399
5	0x3c940e91	0.018073352
6	0xbb2ff75c	-0.0026850319
7	0x3d1d8929	0.038460884
8	0x3bbb115d	0.005708857
9	0x3cf160f2	0.029465172
10	0xbccf0dc1	-0.025275113
11	0x3caaabae	0.020833816
12	0x00000000	0.0
13	0xbc8158da	-0.015789438
14	0xbc1f3342	-0.009716811
15	0xbbc4c5af	-0.006005011
16	0xbc723173	-0.014782297
17	0x3d529963	0.051415812
18	0x00000000	0.0
19	0xbb932b47	-0.004491243
20	0x3cc14179	0.02359079
21	0x3cc73359	0.024316477
22	0xbc1801b5	-0.009277751
23	0x3c1538da	0.009107793
24	0x3ca5a64f	0.020220904
25	0x00000000	0.0
26	0x3cb13e03	0.021636015
27	0x3d98c756	0.07459895
28	0x3c22f85d	0.00994691
29	0x3c29f098	0.010372303
30	0xbbc4c824	-0.006005304
31	0x00000000	0.0
32	0x3a750e5c	0.0009348148
33	0x00000000	0.0
34	0xbbc4c77b	-0.0060052252
35	0x3c73db06	0.014883762
36	0x3bb042b1	0.005379044
37	0xbcaf393a	-0.021389592
38	0xbcb24518	-0.021761462
39	0x3d2c0ded	0.04200547
40	0x3bb9599c	0.005656434
41	0x3cd2685c	0.025684528
42	0xbb4b1fd2	-0.0030994308
43	0x3d237795	0.039908964
44	0xbbb26858	-0.0054445677
45	0xbb8d3c94	-0.0043102
46	0x3bb5e8e4	0.0055514444
47	0x3bab875d	0.0052346424
48	0x3cf8e179	0.030380951
49	0x3cae4479	0.021272885
50	0x3c886d4f	0.016653685
51	0x3cdb04fc	0.026735775
52	0x3c957c58	0.018247768
53	0x3bc477b2	0.005995714
54	0x3d336864	0.043800727
55	0x3d1311fa	0.035905816
56	0x3cab53c1	0.02091396
57	0x3c3fe7a5	0.011712943
58	0xbcacda29	-0.02110012
59	0x00000000	0.0
60	0x00000000	0.0
61	0xbcd22125	-0.02565057
62	0x3c1fafa7	0.009746469
63	0xbd0527ee	-0.032508783

model/dense/MatMul/ReadVariableOp:0 f4 [2610, 64]
0	0xbd134525	-0.035954613
1	0xbc5302c5	-0.012879078
2	0x3cf45db2	0.029829834
3	0x3cedcbc0	0.02902782
4	0xbcb05344	-0.02152408
5	0x39ade234	0.00033165666
6	0xbbe8a186	-0.007099333
7	0xbd857049	-0.06515557
8	0xbd286697	-0.041113462
9	0x3c208fc8	0.009799905
10	0x3c58ea40	0.013239443
11	0xbc98ff31	-0.018676372
12	0x3d866ab8	0.06563324
13	0xbcbca8be	-0.023029681
14	0x3d3cf9e0	0.046136737
15	0x39c204bd	0.00037006094
16	0xbcfff104	-0.031242855
17	0x3cd494f7	0.025949938
18	0x3d132bbd	0.035930384
19	0xbd3d42f9	-0.04620645
20	0xbc57e453	-0.013176995
21	0xbc82ee58	-0.015982792
22	0x3cedf459	0.029047178
23	0x3c0e6948	0.008692093
24	0x3bf1856d	0.007370642
25	0xbdbeae6d	-0.09310613
26	0x3ce776a5	0.028254816
27	0xbd3ddf39	-0.04635546
28	0xbd34533c	-0.04402469
29	0xba727177	-0.0009248475
30	0xbd3c1536	-0.045918666
31	0xbbc0af6e	-0.005880288
32	0x3bc45e10	0.0059926584
33	0xbc864dbb	-0.016394487
34	0xbd050d4b	-0.03248338
35	0x3d0e843c	0.034794077
36	0xbd1fe4bc	-0.039036497
37	0x3ce16dc9	0.02751817
38	0xbb506da1	-0.0031803625
39	0x3dcc3711	0.099714406
40	0x3d4f55b4	0.050618842
41	0xbc67e34d	-0.014153314
42	0xbd0e0e99	-0.03468189
43	0xbdd62c0a	-0.104576185
44	0x3cf94dd8	0.030432627
45	0x3cd7e707	0.02635528
46	0xbb837858	-0.004012149
47	0x3cff3e24	0.03115756
48	0xbcbb16fd	-0.02283811
49	0x3d2549a9	0.04035345
50	0x3d5dbc27	0.054134514
51	0xbd22132f	-0.039569076
52	0xbd003a99	-0.031305883
53	0xbd03c48b	-0.03216986
54	0xbd37a25b	-0.04483257
55	0x3cd1ec92	0.0256255
56	0x3e279b4b	0.16367833
57	0x3d08bc9a	0.03338299
58	0x3d9d2b3f	0.07674264
59	0xbc512d1f	-0.012767105
60	0x3d4cc7f1	0.049995366
61	0xbb7b965b	-0.003838918
62	0x3d165d0d	0.036709834
63	0xbd94ad58	-0.07259625
64	0x3ce861a1	0.028366866
65	0x3b152064	0.0022754902
66	0x3d0c5f25	0.034270424
67	0xbd0bdaeb	-0.034144323
68	0x3d04a251	0.03238136
69	0xbd1d0a8c	-0.038340136
70	0x3ce7fff8	0.028320298
71	0x3d26a5d4	0.04068549
72	0xbbc9567f	-0.0061443443
73	0xbca2575f	-0.019817052
74	0x3c9f7284	0.019463785
75	0x3cd8b0c4	0.026451476
76	0x3d125ec9	0.035734925
77	0x3d414e7f	0.047194
78	0x3cfb82c0	0.030701995
79	0xbd464c75	-0.04841276
80	0x3d067d1f	0.03283417
81	0xbca89ee7	-0.020583583
82	0xbd4ca996	-0.049966417
83	0xbd242f0f	-0.04008394
84	0xbca0723c	-0.019585721
85	0xbc7a9040	-0.015293181
86	0x3cfdd366	0.030984592
87	0x3d2ad972	0.04171128
88	0xbcd6756e	-0.026179042
89	0x3d037b9a	0.032100298
90	0xbcbff6d6	-0.02343313
91	0xbd111aec	-0.035426065
92	0xbcda1cc4	-0.026625045
93	0x3d13135f	0.035907146
94	0x3c9d9c94	0.019239701
95	0x39ab6f38	0.00032698526
96	0xbcb9a58a	-0.022661943
97	0xbc46e0d0	-0.01213856
98	0x3d32cf04	0.043654457
99	0xbd4d4f8c	-0.05012469
100	0x3cc00d0c	0.023443721
101	0x3bcb7cea	0.0062099593
102	0x3d1b30dc	0.037888393
103	0xbaa15f38	-0.0012311703
104	0x3d0cfe77	0.034422364
105	0x3c7e9681	0.015538813
106	0xbcce15a4	-0.025156803
107	0xbc39336b	-0.011303763
108	0x3c913070	0.017723292
109	0x3c802610	0.01564315
110	0xbcee2198	-0.029068753
111	0xbcbe6aee	-0.023244347
112	0xbd2b7154	-0.041856125
113	0x3b5564f4	0.0032561393
114	0x3d3ea839	0.04654715
115	0xbce5a942	-0.02803481
116	0xbc17b70c	-0.00925995
117	0xbcf90335	-0.030397037
118	0xbd193798	-0.037406534
119	0x3c93e690	0.018054277
120	0x3d474c85	0.04865696
121	0xbc9655a6	-0.018351387
122	0x3cf7e0b0	0.030258507
123	0x3c989b0a	0.018628616
124	0xbd10294c	-0.035195634
125	0x3cf6be0c	0.030119918
126	0xbc628391	-0.013825313
127	0x3c33ab53	0.01096614
128	0x3d24d29b	0.04023991
129	0x3c746b3f	0.014918148
130	0xbd27a821	-0.040931825
131	0x39995dbb	0.0002925227
132	0x3d42e509	0.047581706
133	0x3d322991	0.043496672
134	0xbd77f9e0	-0.060541034
135	0x3db1410b	0.08654984
136	0x3c050d44	0.008120839
137	0x3d234f2b	0.039870422
138	0xbc89b934	-0.016811945
139	0x3a316380	0.0006766841
140	0xbd5d6628	-0.054052502
141	0x3be0f4e9	0.006865133
142	0xbd23c199	-0.03997955
143	0x3d042ac3	0.032267343
144	0xbdbb6979	-0.09150977
145	0xbbe1190f	-0.0068694423
146	0x3cf14b8d	0.02945497
147	0xbc28fbcb	-0.010313938
148	0xbcbf8751	-0.023379954
149	0x3caec093	0.02133206
150	0xbd1f9a81	-0.038965706
151	0xbd11d5cf	-0.035604294
152	0xbde9d11d	-0.11416838
153	0xbe23f73c	-0.16012281
154	0xbcf91fec	-0.03041073
155	0x3c6e095c	0.014528599
156	0x3d48f34b	0.049060147
157	0xbd36b54a	-0.044606484
158	0x3d41b604	0.047292724
159	0xbd17a35a	-0.03702102
160	0xbd32e550	-0.04367572
161	0x3cf136e0	0.029445112
162	0x3cc67f60	0.024230659
163	0x3b8dfe7e	0.0043333163
164	0x3d154c30	0.03644961
165	0xbd42b13e	-0.047532313
166	0xbb2ac3a6	-0.0026056557
167	0x3d6f506f	0.058426317
168	0x3d32d200	0.043657303
169	0x3d1be65e	0.038061492
170	0x3a2167ad	0.00061571115
171	0xbde7e656	-0.1132323
172	0x3cc3dcb0	0.023908943
173	0xbc89aa14	-0.016804732
174	0xbc6fbbe3	-0.014632198
175	0xbcfabe35	-0.030608276
176	0xbd1c5f4f	-0.03817683
177	0xbd4d60e4	-0.05014123
178	0xbd1f4fa4	-0.03889431
179	0x3bb83ff6	0.005622859
180	0x3d10de9a	0.03536854
181	0x3c651c7c	0.013983842
182	0x3c55b10c	0.0130427
183	0x3d4495b2	0.047994323
184	0x3db9141f	0.09037041
185	0x3bd96850	0.0066347495
186	0x3d55d268	0.052202612
187	0x3d252a28	0.040323406
188	0x3cf8ba0c	0.030362152
189	0xbd206992	-0.03916318
190	0xbb9968c5	-0.004681679
191	0x3e2767a9	0.16348137
192	0xbd015ad6	-0.03158077
193	0x3d14ef62	0.036361106
194	0xbc61b508	-0.013776071
195	0x3d0ce9d1	0.034402672
196	0x39f4d29c	0.00046696223
197	0xbccd8a8f	-0.025090484
198	0x3da3712a	0.07980569
199	0x3dc64093	0.09680285
200	0x3a959c16	0.0011414315
201	0x3bba8bcf	0.005692936
202	0x3bedb443	0.007254155
203	0x3d1ef376	0.0388064
204	0x3d18e688	0.037329227
205	0x3bf18b10	0.007371314
206	0x3b8236c0	0.003973812
207	0xbcf69546	-0.030100476
208	0xbca4bb35	-0.020108799
209	0x3d8b19ca	0.06792028
210	0xbbd3e53f	-0.0064665372
211	0x3c40cb86	0.011767274
212	0xbcb99fe4	-0.02265925
213	0xbc1953b9	-0.00935834
214	0xbd17d5fd	-0.03706931
215	0xbd096942	-0.033547647
216	0xbd8a17cf	-0.067428224
217	0x3d8591ef	0.06521975
218	0x3ce540d6	0.027985018
219	0xbc874c25	-0.0165158
220	0xbb6a9ab0	-0.0035797767
221	0x3d454c86	0.04816868
222	0xbca9c552	-0.020723972
223	0x3cf8f0a8	0.030388191
224	0x3c57afc4	0.013164464
225	0x3c3ce564	0.0115293
226	0x3cf32e14	0.029685058
227	0x3bc78f34	0.006090069
228	0x3c72b740	0.014814198
229	0xbca98c5c	-0.020696811
230	0xbbfa54d5	-0.0076395073
231	0xbdd65263	-0.10464933
232	0xbbfa2de6	-0.007634866
233	0x3cb6e576	0.022326212
234	0x3d58506c	0.05281107
235	0xbd37a51a	-0.044835187
236	0x3d2f9e58	0.042875618
237	0xbca26f22	-0.019828383
238	0x3cc8ab54	0.024495758
239	0xbbe93e5a	-0.0071180286
240	0x3cca1eab	0.024672827
241	0x3d24a30c	0.040194556
242	0xbcb5977b	-0.022166958
243	0x3d0a8c7a	0.033825375
244	0x3d2924cb	0.041294854
245	0x3ca34de7	0.019934608
246	0x3cb2678d	0.021777892
247	0x3c1e4506	0.009660011
248	0xbd82d2c3	-0.06387856
249	0xbc5674d0	-0.013089374
250	0x3e07fbf7	0.1327971
251	0x3c36c702	0.011155846
252	0x3d2bd738	0.041953295
253	0xbd1a6e3d	-0.037702788
254	0xbd22367f	-0.039602753
255	0xbdb04b8e	-0.08608161

model/dense/BiasAdd/ReadVariableOp:0 f4 [64]
0	0xbbc4833b	-0.005997089
1	0xbbbe895a	-0.0058147134
2	0xbbc4baf0	-0.00600373
3	0xbbb6046a	-0.0055547254
4	0xbbc4c5db	-0.0060050315
5	0xbbc4c65f	-0.006005093
6	0x3c148e15	0.009067078
7	0x3b805310	0.003916152
8	0xbb348b43	-0.0027548827
9	0xbbc4c3b4	-0.006004775
10	0xbbb8f4d4	-0.00564442
11	0x00000000	0.0
12	0x3bece419	0.00722934
13	0x3bf5d42d	0.0075021
14	0x00000000	0.0
15	0xbc083464	-0.008313272
16	0x3bd83edf	0.0065992917
17	0xbbba69dc	-0.005688889
18	0xbbb29ae7	-0.0054505947
19	0xbbb6050a	-0.0055548
20	0xbc090408	-0.0083627775
21	0xbb6e0caa	-0.0036323466
22	0xbbc4c407	-0.0060048136
23	0x00000000	0.0
24	0x3bf0cc7d	0.0073485957
25	0x3bd328cc	0.0064440724
26	0xbbc4bf4b	-0.006004249
27	0xbbc4ba38	-0.0060036443
28	0xbbc4c383	-0.006004752
29	0xbb9eaf8d	-0.0048427046
30	0x00000000	0.0
31	0xbb8b2461	-0.00424628
32	0x00000000	0.0
33	0x00000000	0.0
34	0x00000000	0.0
35	0xbb727c76	-0.0037000454
36	0x00000000	0.0
37	0xbbaaf6ee	-0.0052174246
38	0xbbd6bbd3	-0.006553152
39	0x3ca29b3e	0.019849416
40	0xbc0ae6a7	-0.008477843
41	0xbb815726	-0.0039471565
42	0xbbd1e084	-0.006404938
43	0x3beebd81	0.007285774
44	0x00000000	0.0
45	0xbbbf352a	-0.005835195
46	0xbbc0b582	-0.0058810124
47	0xbbc4a3ca	-0.0060009705
48	0xbbaa814e	-0.0052034026
49	0xbbc4c4e2	-0.0060049156
50	0x3bc2ae4f	0.0059411894
51	0xbbc4c0fc	-0.006004451
52	0xbbc49dfa	-0.0060002776
53	0xbbc4c560	-0.0060049742
54	0xbbc271b1	-0.005933963
55	0xbbc4bd5d	-0.006004019
56	0x3c068d04	0.008212332
57	0x00000000	0.0
58	0x3c2f65e9	0.01070545
59	0xbbc4c134	-0.006004477
60	0xbbc65775	-0.006052906
61	0xbbdda185	-0.0067636394
62	0xbbc4a1bc	-0.0060007256
63	0x3c4f284a	0.012643883
